docker/data/ShapeNetCore.v2.PC15k/03001627/test/b07c1560f5c3bf20525319ccc5eeb31d.npy (npy, 180128 bytes, 1 tensors)

array f4 [15000, 3]
000000 4e 27 c6 bd 68 53 d7 bd b8 e7 89 be 7e d9 e5 3d
       -0.096754655 -0.10513955 -0.269346 0.11223124
000010 da 6c 8b 3e fe d3 4f 3e 7c d4 6e 3d 81 ed 80 bd
       0.27231485 0.20295712 0.05830811 -0.062953
000020 fa a7 05 3d ac 0b 45 3e 79 91 49 bd da a9 8f bd
       0.032630898 0.19242734 -0.049211 -0.070148185
000030 5c a0 7e bd 9f 00 2a be 30 82 d0 3d 30 e7 a8 bc
       -0.06216465 -0.166018 0.10181081 -0.020618051
000040 c4 6a 84 bd c3 f7 0a 3e 3f 0a 2f 3e d7 17 c9 be
       -0.064656764 0.13571076 0.17093752 -0.39276
000050 a4 d7 a1 3c 8e 51 e0 bd 81 ed 80 bd 66 d6 d4 3d
       0.019756146 -0.10953055 -0.062953 0.10392456
000060 eb 00 ea bd 86 6b 41 3e c8 15 f5 3d dc 9a 2b bd
       -0.11425956 0.18888673 0.11967045 -0.041895732
000070 9f 00 2a be ea 19 7d bd 49 98 c1 3d 82 df 25 3e
       -0.166018 -0.06179229 0.09452874 0.16198543
000080 2c a4 47 3e a6 38 ef 3d 59 8b 68 bd 3a 80 b4 3d
       0.1949622 0.11680727 -0.056773517 0.0881352
000090 be 34 db bd 81 ed 80 bd 31 a1 1f be 86 47 f2 3d
       -0.10703419 -0.062953 -0.15588833 0.11830048
0000a0 bc b9 c3 3d 8d 04 42 3e 24 51 26 bd 81 ed 80 bd
       0.095569104 0.18947048 -0.040604725 -0.062953
0000b0 e3 a2 7b be 71 3b 84 3e f0 56 13 3c 8e 1b 98 bd
       -0.24573855 0.258266 0.0089928955 -0.07427131
0000c0 1a 4c 81 be 79 91 49 bd 58 f3 c6 3d db 8c 03 3e
       -0.25253373 -0.049211 0.09714383 0.12846701
0000d0 00 ce e6 39 b6 bd 29 3e 1b 9d 83 be 20 79 a4 3c
       0.000440225 0.16576275 -0.257058 0.020077288
0000e0 98 85 f3 3d 70 6b e9 bb 08 21 d0 be 1b a1 85 be
       0.11890715 -0.0071234033 -0.406502 -0.26099476
0000f0 0a de b1 bd 30 78 40 3e 20 2d 3a 3e 60 85 c3 bc
       -0.08684929 0.18795848 0.18181276 -0.02386731
000100 a0 ec ab 3b b9 f7 2a 3e de 5f 0b bd 33 37 35 3e
       0.0052467138 0.16696061 -0.034026973 0.17696838
000110 d6 1f e9 3d 73 47 2f be bf 02 fd bd 98 9f a9 bd
       0.11383025 -0.171171 -0.123540394 -0.08282393
000120 42 03 5a be 6d 19 08 be 3b 8c 68 be 6a 1f ae 3d
       -0.21290305 -0.13290949 -0.22709744 0.085020855
000130 e6 2d 56 bd 4f a1 94 3d d6 36 01 3c 9f 00 2a be
       -0.052289866 0.0725733 0.007886609 -0.166018
000140 69 f1 a9 bd 48 c6 76 bd 64 40 4a 3e 8c 12 e5 3d
       -0.082979985 -0.06024769 0.19751126 0.11185178
000150 1c 88 6c be 79 91 49 bd 00 67 bc bb f0 ab 0c be
       -0.23098797 -0.049211 -0.0057495832 -0.13737464
000160 9f 00 2a be 54 21 58 be f4 72 6c 3e 03 96 5c 3d
       -0.166018 -0.21106464 0.23090726 0.053854
000170 88 fc f4 bd 50 22 32 bd d5 a3 61 bd df 84 a8 3d
       -0.11962229 -0.043489754 -0.055087883 0.08228468
000180 73 47 2f be 7d 78 64 3d dc 65 05 3e 63 1f 14 be
       -0.171171 0.05577897 0.13027138 -0.14465098
000190 e6 12 7f bd 42 99 db 3d 73 47 2f be 52 26 f9 bd
       -0.062273882 0.10722591 -0.171171 -0.12165512
0001a0 bc d6 8f bd aa 5c 0e bd 81 ed 80 bd 70 aa 49 3c
       -0.07023379 -0.03475634 -0.062953 0.012308702
0001b0 e2 0c c2 bd 9f 00 2a be 00 fb 83 ba 60 05 15 3e
       -0.094751135 -0.166018 -0.0010069311 0.14552832
0001c0 e5 b3 cd be 50 fa 25 be 6f c1 11 bd 30 da 33 be
       -0.4017631 -0.16208768 -0.035584863 -0.175637
0001d0 d0 25 8e bc d0 16 1a 3c 81 ed 80 bd ac 35 60 be
       -0.017352015 0.009404853 -0.062953 -0.21895474
0001e0 d4 41 39 3d 81 ed 80 bd ee 02 77 be 72 9d 66 3e
       0.045228794 -0.062953 -0.24122211 0.22520998
0001f0 b4 73 5a bd 80 62 5d bb 8f 23 0c be 0b 83 5a 3e
       -0.053333 -0.0033780634 -0.1368544 0.21339051
000200 30 33 e4 3d c1 1a a6 bd 13 8a cd be 05 7d 85 be
       0.11142576 -0.08110572 -0.40144405 -0.26071945
000210 1f 84 30 3e 54 23 b7 bc 1b 5c 6f be 80 d2 44 3b
       0.172379 -0.022355713 -0.23374979 0.0030032694
000220 7f 1e 85 bd 34 f9 ee 3d 5d 31 05 3e 3d 4b 6c be
       -0.06499957 0.116686255 0.13007112 -0.23075576
000230 b0 68 9d bd 1c 43 5f be 79 91 49 bd fa b2 e3 bd
       -0.07685983 -0.21802944 -0.049211 -0.111181214
000240 9f 3a 35 be d7 17 c9 be 7e 82 28 3d b8 36 42 bd
       -0.17698143 -0.39276 0.041140072 -0.047415465
000250 20 0f ab bd c9 57 12 3e 00 66 2e 3b 4d f3 79 bd
       -0.08352494 0.142913 0.002661109 -0.061023045
000260 45 0e 1a 3e 98 64 2e be d7 17 c9 be d0 2f 12 be
       0.15044506 -0.17030561 -0.39276 -0.14276052
000270 73 47 2f be 3d a5 9a bc 7c 59 bb 3c 2a 70 bd 3d
       -0.171171 -0.01887762 0.022869818 0.09249909
000280 81 ed 80 bd 08 a1 76 be 80 b4 52 bd ff 77 8d 3d
       -0.062953 -0.24084866 -0.05144167 0.06907653
000290 c6 41 3b 3e 20 7d 43 3d 95 9d 8c 3d 5b d8 b1 3d
       0.1828681 0.04772675 0.06865994 0.08683845
0002a0 9d 86 0f 3e fd 35 e3 3d ff 6c c7 3d 00 67 21 3a
       0.14016195 0.11094282 0.09737586 0.0006157011
0002b0 50 59 e0 3c 96 c7 9c 3d 73 47 2f be 0b c1 13 be
       0.027386338 0.076552555 -0.171171 -0.14429109
0002c0 b8 9c 64 bd 20 53 d4 bc 4c 9e 1f be 72 d8 11 3e
       -0.05581352 -0.025918543 -0.15587729 0.14242724
0002d0 da 02 17 be b9 02 82 be aa 85 80 bd ff 5b 32 3e
       -0.14747182 -0.25392702 -0.062754944 0.17417906
0002e0 47 9a 55 3d 60 11 f3 3c 67 b8 0f 3e 98 99 77 3e
       0.052149083 0.029671371 0.14035188 0.24179685
0002f0 a1 aa 50 3e 80 6c ad ba 38 53 62 3d cf ba 37 3e
       0.2037759 -0.0013231188 0.055255145 0.17942356
000300 b0 80 48 3d 9f 00 2a be 84 3e 7c be 60 1e 1d 3d
       0.04895085 -0.166018 -0.24633223 0.038359046
000310 9f 00 2a be 16 17 31 be 37 4e c7 bd 0c 68 84 bd
       -0.166018 -0.17293963 -0.09731715 -0.06465158
000320 64 fd de 3d b8 b8 30 3e c2 c0 bc be ed 20 74 bd
       0.10888174 0.17257965 -0.36865813 -0.059601713
000330 56 3f e4 3d 43 29 07 3e 2c 50 4b 3e ea df 16 3e
       0.11144893 0.13199334 0.19854802 0.14733854
000340 01 14 79 be dd 56 91 bd 2d d3 82 bd 0b 6a 92 3d
       -0.24324037 -0.07096646 -0.06387935 0.07149132
000350 88 df 3b 3e 73 47 2f be 43 66 eb bc 99 bd 59 be
       0.18346989 -0.171171 -0.028735286 -0.21263732
000360 45 10 17 3e 81 ed 80 bd 6c 32 87 3d 6c f8 54 3d
       0.147523 -0.062953 0.06601414 0.051994726
000370 9f 00 2a be 12 ff 8d bd 1f 84 30 3e 08 e1 3d bc
       -0.166018 -0.069334164 0.172379 -0.011589296
000380 99 88 5c be 1f 84 30 3e 2e 0d 04 bd 0e df a0 3d
       -0.21536483 0.172379 -0.03223913 0.07855044
000390 62 c3 58 be 79 91 49 bd 78 5f 8e bd 0d 99 47 be
       -0.21168283 -0.049211 -0.06951803 -0.19491978
0003a0 bd 2b 48 3d a1 38 88 be 1f 84 30 3e e0 c3 1c bb
       0.048869837 -0.26605704 0.172379 -0.0023920462
0003b0 74 c9 55 be e9 38 2c be 90 7f 3f bb a6 c1 23 3e
       -0.2087763 -0.16818585 -0.002922032 0.1599184
0003c0 36 9c 37 3e 14 06 ca be cc 03 74 bd 92 35 55 be
       0.17930683 -0.39457762 -0.059573933 -0.20821217
0003d0 79 91 49 bd 4e 50 bb 3d 0e d8 5f 3d 81 ed 80 bd
       -0.049211 0.09146176 0.054649405 -0.062953
0003e0 ac 3c ab bd d8 54 a2 3d 8f 9e 4f bd 72 b1 1c 3e
       -0.083611816 0.07926339 -0.050688323 0.15302065
0003f0 13 33 b0 3d bb de 91 3e 4d 45 e0 3d 73 47 2f be
       0.08603492 0.28490242 0.10950718 -0.171171
