docker/data/ShapeNetCore.v2.PC15k/03001627/test/b16f1858c1a7c0a65001cb19c4a0eee4.npy (npy, 180128 bytes, 1 tensors)

array f4 [15000, 3]
00000000: 6c33 0dbe 6ab3 ed3c 7e7b 303e 497f 0e3e
00000010: 66f7 89bd ef27 7fbe 16ec 9a3d 6297 dd3d
00000020: e276 4f3e 4146 403e c25c 30bd 8949 afbd
00000030: bbb4 1cbe de41 a23d 2ec9 493e 82de b83d
00000040: 7823 f7bb 9693 1f3e 0fec 303e a4c1 6d3d
00000050: a704 a5bd e12c 493e a4c1 6d3d f3f3 563e
00000060: b8b9 1dbe ff84 2f3e 88ed 6e3e c0c5 f3bc
00000070: fa4c 363e f4aa 693e 766e 4abe 6262 e6bd
00000080: 96c6 193d 7ab1 383e 0cec 04be fa41 9abe
00000090: f5c4 f9bd 3445 86bc ad7b 263e 52b8 b8bd
000000a0: f0da ad3c ec01 293e dded 2abe d99b c3bd
000000b0: c5ed 003e 4f93 d1bd de89 14bd 22d8 313d
000000c0: 228a 493e 1c8f 653d 2c8e 173d b5c1 3d3e
000000d0: ca34 c4bd 6dcc 8bbe 8948 383e 802c 2dbd
000000e0: d414 a6bd 30a7 a03d 4ed2 273e 05d4 6b3e
000000f0: dded 2abe 7e01 78bd 5f62 80bc 4146 403e
00000100: 5423 eebd 392a 03be 2dce be3d 374c 25bd
00000110: 0f5d 93bc 8d99 a93d 782d c63d 5526 503e
00000120: c345 19be 7f70 1abd a771 0ebe 259e 0d3e
00000130: 1f5b 23bd 8eae cf3d 766e 4abe 2cad eabd
00000140: 56c3 123e ef86 5abe a4c1 6d3d 8e00 073e
00000150: 78b9 793d 9dcd ebbd 42ba 94be fcd8 3a3e
00000160: baf3 82bd 0360 72be 40a5 563b 769b 7a3e
00000170: 3695 863e 0008 503c 1281 70bd 87ca 1a3e
00000180: dded 2abe 7f16 a3bd 1b75 de3d 766e 4abe
00000190: 183b 0b3c 536f 0d3e 84f5 dabd af06 f6bd
000001a0: 3361 96be 2951 3f3e a4fc 0fbd 9237 1b3e
000001b0: 89e9 dd3d b2ec e43c 37c5 333e f0cb aa3d
000001c0: f3a9 933e 7397 8b3e 073b f63d 7a32 09bd
000001d0: 869c 31be 2073 823d 6c86 21bd 3ed7 e13d
000001e0: de84 57be 6c87 503e 5c0f 793e dded 2abe
000001f0: 34d7 ddbd 0543 0cbe df3c 773e a4c1 6d3d
00000200: da6e 0bbd 766e 4abe b81e ff3c c211 e1bd
00000210: e6fe 59be a4c1 6d3d 79e9 2b3e a8c5 203e
00000220: 5cff 2dbe fa95 383e 8909 2a3e 5256 80bd
00000230: 3c37 2bbe 208b ec3d 97e8 01bd 4c00 ed3d
00000240: ea4c 8c3d 383d 333d fc10 363e 766e 4abe
00000250: d167 3c3d 6878 64bc 1d63 37be e4f6 ebbd
00000260: 383b c5bd 3cf5 1e3e b4a9 453e c2db 6f3e
00000270: dded 2abe 628e b6bd 06c4 70be 8248 163e
00000280: 9870 983c 2fe7 3e3e 76ba 373e d2cb 993e
00000290: 910e 923e 8e50 433e e4f6 ebbd f3d8 8abd
000002a0: e0dc 033d 0441 e43d ea36 4e3e 4009 ffbc
000002b0: 23ce b8bd ec17 88be 0926 2f3e a4c1 6d3d
000002c0: 6631 c23c 4146 403e efc2 ccbd caa4 44bd
000002d0: 0297 f43d 377e 2cbd 91cc 3cbe 0c53 3abe
000002e0: a4c1 6d3d 68ec 7abc 900b b1bc 2960 acbd
000002f0: fa2b 8abe 54c5 3dbe 2e00 763e b6a7 853e
00000300: 7f21 3fbe 0f75 21bd a98b 47bd 401d 37be
00000310: 4dc0 2fbe 27b5 6bbe 199e 1d3e b7e9 813d
00000320: 35cc 3f3e c725 163d cc45 b83e 4f54 9e3e
00000330: 437d 1b3e 22b1 833e d127 893e 8f9c 183e
00000340: 1035 6cbd 4a7f 143e dfb2 25be 9468 893d
00000350: 6868 2a3e 2859 6a3e 9468 893d c031 f4bc
00000360: ceb6 0bbe 63a3 b93e 9853 9c3e a4e5 1d3e
00000370: 50ff 403b b971 383e 8909 2a3e 6478 9fbd
00000380: 7801 68be 2064 813b d2bc f8bc 0a12 073e
00000390: 91c0 6cbe a4c1 6d3d 7b78 c13d fca9 21be
000003a0: 5bd0 21be 5469 3e3e cf44 523e a4c1 6d3d
000003b0: d277 b73d 4146 403e 7056 653d a86d 04bd
000003c0: 0a8f f1bd 09b3 b93e 60e7 9e3e fc95 34be
000003d0: 3a77 eabd 4bc8 2ebe 952a 41be 74f9 373c
000003e0: e2bd 193e 5c4d 633d 5a25 c6bd f4d9 90be
000003f0: 766e 4abe 9684 86bd 647e 71bd c71f 19be
-0.13789147 0.029016215 0.17234609 0.13915743 -0.06736641 -0.24917577 0.07564561 0.108198896
0.20260194 0.187768 -0.04305721 -0.085589476 -0.15303318 0.079227194 0.1970565 0.09026815
-0.00754207 0.15583643 0.17277549 0.058046 -0.08057528 0.19646026 0.058046 0.20991497
-0.15402877 0.17140578 0.23332798 -0.02975738 0.17802802 0.2281912 -0.197687 -0.11249234
0.037542902 0.18036452 -0.1298067 -0.3012846 -0.1219577 -0.01639042 0.16258116 -0.09019531
0.021222562 0.1650464 -0.166923 -0.0955121 0.12590702 -0.10233175 -0.036264293 0.04341901
0.196816 0.056044683 0.03700082 0.18530925 -0.09580381 -0.27304402 0.1799642 -0.042278767
-0.081094414 0.078443885 0.16388819 0.23030098 -0.166923 -0.060548298 -0.015671907 0.187768
-0.11627832 -0.12809075 0.09316669 -0.040355887 -0.01798871 0.082812406 0.09676641 0.20327123
-0.14968018 -0.03770494 -0.13910542 0.13829859 -0.03988182 0.101407155 -0.197687 -0.11458811
0.14332327 -0.21340536 0.058046 0.13183805 0.060967892 -0.11513827 -0.29048353 0.18246835
-0.063941434 -0.23669438 0.0032752305 0.24473366 0.26285714 0.01269722 -0.05871684 0.1511632
-0.166923 -0.07963275 0.1086218 -0.197687 0.008497976 0.13811998 -0.1069136 -0.120129935
-0.29371032 0.18683304 -0.035153046 0.15157917 0.10835559 0.027944896 0.175557 0.08339679
0.28840598 0.27263984 0.12022977 -0.033495404 -0.17344865 0.063696146 -0.039434835 0.11027382
-0.21046779 0.2036416 0.24322265 -0.166923 -0.10832062 -0.13697441 0.24144314 0.058046
-0.034041263 -0.197687 0.031142578 -0.10989715 -0.21288642 0.058046 0.16788282 0.157004
-0.16991943 0.18025962 0.166052 -0.06266464 -0.16720289 0.115499735 -0.031715956 0.11572322
0.06850608 0.043759555 0.17779917 -0.197687 0.045997445 -0.013944723 -0.17908902 -0.115217
-0.09630436 0.15523237 0.19303018 0.23423675 -0.166923 -0.08913876 -0.23512277 0.14676097
0.018608376 0.18642877 0.17942223 0.30038315 0.28526738 0.19073698 -0.115217 -0.06779661
0.032193065 0.11145213 0.20138136 -0.03113234 -0.090236925 -0.2658075 0.17104353 0.058046
0.023705196 0.187768 -0.09998118 -0.048008718 0.11942865 -0.042112555 -0.18437411 -0.18195742
0.058046 -0.015315153 -0.021611959 -0.084167786 -0.26986676 -0.18532306 0.24023506 0.26104516
-0.18665121 -0.039418276 -0.048717175 -0.17882252 -0.171632 -0.23018323 0.1539234 0.06343406
0.18730243 0.03665712 0.3599075 0.30923697 0.15184502 0.2572108 0.2678819 0.14903472
-0.05766779 0.14501682 -0.16181515 0.067094 0.1664139 0.22885573 0.067094 -0.029808879
-0.13643953 0.36257467 0.30532527 0.15419632 0.0029449053 0.18012132 0.166052 -0.077866346
-0.2265681 0.0039487034 -0.030363474 0.13190475 -0.23120333 0.058046 0.09446808 -0.157875
-0.15802138 0.18594867 0.20534061 0.058046 0.08958401 0.187768 0.055990636 -0.03233114
-0.11794861 0.36269405 0.310359 -0.1763534 -0.11448522 -0.17068593 -0.188639 0.011228908
0.15013841 0.055493698 -0.09675093 -0.28291285 -0.197687 -0.065682575 -0.058958426 -0.14953528
