docker/data/ShapeNetCore.v2.PC15k/03001627/test/b2ba1569509cdb439451566a8c6563ed.npy (npy, 180128 bytes, 1 tensors)

array f4 [15000, 3]
000000 74 ee de 3a f5 f2 f3 3e 36 bb 9f 3d a6 9d 1a be
       0.001700832 0.476463 0.077993795 -0.150992
000010 63 45 1a be cf a5 76 be ad bf 2a bc 4a 3f 4a 3e
       -0.15065531 -0.24086688 -0.010421676 0.19750705
000020 69 b9 cc 3d d4 27 6b bd b2 66 24 bd 60 7e 21 be
       0.09996302 -0.05741103 -0.040137 -0.15770864
000030 49 82 00 3e 5f 36 91 bd b5 9a 59 be 1b dc 13 be
       0.125497 -0.070904486 -0.21250422 -0.14439432
000040 90 62 a8 be fc 6e 9a 3d a0 b1 8b 3c 42 99 06 bd
       -0.32887697 0.075407 0.017052472 -0.032861
000050 05 1e 63 be 36 90 1e 3e dd 5c da bd 2f 30 6b be
       -0.2217942 0.154847 -0.106622435 -0.229676
000060 8e 72 83 3d 42 99 06 bd 4b ca 87 be a9 d1 a3 bd
       0.06418334 -0.032861 -0.26521525 -0.07998974
000070 16 05 98 3e b6 ba b8 3d 1e e8 00 3e e0 27 9d 3c
       0.2969138 0.09019987 0.12588546 0.019184053
000080 59 4e 85 3d ac ea 48 3d 42 99 06 bd b0 4b 31 be
       0.06509084 0.049051926 -0.032861 -0.17314029
000090 a5 d3 0f be b2 66 24 bd f0 cc 92 3c 58 03 04 be
       -0.1404558 -0.040137 0.017919987 -0.128919
0000a0 74 76 60 be f8 f9 82 be 87 38 0d be 6a 48 2b 3c
       -0.21920186 -0.25581336 -0.13791095 0.010454277
0000b0 c1 61 a0 3d 36 90 1e 3e be 04 40 be 74 3c 4f 3d
       0.07831145 0.154847 -0.18751809 0.050594762
0000c0 25 cd 93 3d b2 66 24 bd 28 c7 34 be 00 b6 cf 3b
       0.072168626 -0.040137 -0.17654097 0.0063388348
0000d0 9a 3f d7 3e 61 86 95 3d 6e 55 d6 3d fd 39 e3 3e
       0.42040712 0.07301021 0.10465513 0.4438018
0000e0 af 15 67 3d da c4 02 3e 9f d3 2e 3e 5b 6d a1 3d
       0.056417163 0.12770405 0.17072915 0.07882186
0000f0 87 28 35 bd 83 dd 30 3c 72 61 29 bd 28 ca d4 bc
       -0.044228103 0.010795 -0.041352697 -0.025975302
000100 42 99 06 bd dc 0f 67 bd 58 03 04 be 6e 19 5d be
       -0.032861 -0.05641161 -0.128919 -0.21591732
000110 64 17 68 3d 0e a5 a3 bd 06 eb a8 3e 52 fe b5 3d
       0.056662932 -0.07990466 0.3299181 0.088863984
000120 20 5a bc 3b 83 dd 30 3c c6 81 70 be 4b 07 f2 bd
       0.0057480484 0.010795 -0.23487005 -0.11817797
000130 c7 33 82 3d 14 19 8c 3d 04 3c db 3d 83 dd 30 3c
       0.06357532 0.06840721 0.107048064 0.010795
000140 23 57 4f 3d 9d 85 8f bd 83 dd 30 3c 21 b9 4b be
       0.05062021 -0.070079066 0.010795 -0.1989484
000150 34 f6 04 be 83 dd 30 3c 09 41 98 bd 0a 34 e3 bd
       -0.12984544 0.010795 -0.074342795 -0.1109391
000160 b2 66 24 bd 0f a0 09 be aa 7c 07 3e 92 b9 03 3e
       -0.040137 -0.13439964 0.1323115 0.12863758
000170 6a 05 6c 3d 00 70 26 bc 67 45 c0 3e e6 e2 ce 3d
       0.05762235 -0.010158539 0.3755295 0.10101871
000180 6c 50 1a 3e 3f e9 82 be ce e3 a7 3d a3 07 15 be
       0.15069741 -0.25568578 0.08197747 -0.14553694
000190 b2 56 50 be fc 6e 9a 3d eb 69 11 3e e4 43 c7 3d
       -0.20345572 0.075407 0.14200561 0.09729746
0001a0 76 2b ad 3d 58 03 04 be 3c 65 90 be 43 d3 82 be
       0.08455555 -0.128919 -0.28202236 -0.25551805
0001b0 41 a3 8e 3d 5c e7 7b 3e d5 3e 9b 3d 85 d3 1d be
       0.06964732 0.24599975 0.07580344 -0.1541272
0001c0 c1 55 88 be 0f 70 73 be e0 a5 ad bb 83 dd 30 3c
       -0.26627925 -0.23773216 -0.005299315 0.010795
0001d0 5e 7e 38 bd 09 d7 41 3e 2e 87 c9 3e 6b 6b 54 3d
       -0.04504239 0.18929686 0.39360946 0.051860254
0001e0 05 14 0e be b2 66 24 bd 80 92 ec bd 44 63 20 3e
       -0.13874824 -0.040137 -0.1155138 0.15662867
0001f0 03 cf 7d bd e6 ff cb 3c 58 8e 03 be ba 85 dc 3e
       -0.061965 0.024902295 -0.12847269 0.43070775
000200 3d 32 d5 3d 95 6e ab 3d 2a 29 8d 3e 1f 90 cb 3d
       0.10409973 0.08370701 0.27570468 0.09939598
000210 a0 ee a0 3d b2 66 24 bd c0 d6 ac 3b 84 9f f8 3d
       0.07858014 -0.040137 0.0052746236 0.121398
000220 83 dd 30 3c c0 a7 54 3c 2d fa a1 3d 82 1b c9 3e
       0.010795 0.012979448 0.07909045 0.392788
000230 3a df c0 3d db fb 10 be c9 23 df 3e 69 4f 03 3d
       0.09417577 -0.14158575 0.4358199 0.032058153
000240 b1 30 18 3e 21 cc 5e be fc 6e 9a 3d 50 df ff bd
       0.14862324 -0.21757556 0.075407 -0.12493765
000250 32 70 63 3e 84 db 71 3d d6 a8 d1 3d b2 66 24 bd
       0.22210768 0.059047237 0.10237281 -0.040137
000260 46 dd 24 be 03 57 97 3d 5c c3 02 3e f7 ad 9a 3d
       -0.16100034 0.07389643 0.12769836 0.075527124
000270 dc e7 7b 3d 42 99 06 bd 4a 54 54 be d3 a8 17 be
       0.061500415 -0.032861 -0.20735279 -0.14810495
000280 9c e4 21 be ec 2f 5b be e8 a6 85 3c 42 99 06 bd
       -0.15809864 -0.21405 0.016314939 -0.032861
000290 80 dd 1c bb 3a 0c 2a 3c 91 52 20 3e 0d ee ab 3d
       -0.0023935735 0.010378892 0.15656497 0.08395014
0002a0 e8 f5 07 3e df 3c e2 bd 22 7a 34 3d 2a 69 f7 bd
       0.132774 -0.110467665 0.044061787 -0.12080605
0002b0 42 99 06 bd 00 d4 be bd e1 57 06 be 7e e0 b2 be
       -0.032861 -0.093177795 -0.1311946 -0.349369
0002c0 c6 5d 69 be 0a ef 3b bc ed ec d2 3e a7 17 94 3d
       -0.22789678 -0.011470566 0.41196385 0.07231074
0002d0 c2 81 10 3e ea 8d ad bd 70 b5 86 be d1 d6 1f be
       0.14111999 -0.084743336 -0.263103 -0.1560929
0002e0 b2 66 24 bd 58 d4 63 3d b0 ac 74 3c 3e df f9 3c
       -0.040137 0.05562243 0.01493375 0.030501958
0002f0 19 86 b3 3d cf 51 1e 3e 53 45 fd 3b 17 fc a2 bd
       0.087658115 0.15460895 0.0077292114 -0.079582386
000300 14 c7 c6 bd b2 66 24 bd 17 a3 18 be 58 03 04 be
       -0.0970594 -0.040137 -0.14905964 -0.128919
000310 56 2c fd bd 88 42 63 be 2a cc 90 bd 42 99 06 bd
       -0.12361972 -0.22193348 -0.07070191 -0.032861
000320 90 68 d5 3d c5 6c 13 3e d2 da ae bc 4c af c9 3d
       0.10420334 0.14396961 -0.021344576 0.09847888
000330 72 27 dc bd b2 66 24 bd 74 37 cb 3d 20 0a 3d bc
       -0.10749711 -0.040137 0.09922686 -0.0115380585
000340 42 99 06 bd 80 6e a2 bb a6 9d 1a be 07 9b 91 be
       -0.032861 -0.0049570203 -0.150992 -0.2843859
000350 d7 77 6f be 06 f5 a4 bb c4 34 77 3e f0 e7 dd 3d
       -0.23385559 -0.005034092 0.24141222 0.10835254
000360 48 1c 9f 3c 42 99 06 bd 02 09 e5 bd c3 9a 0a 3e
       0.019422665 -0.032861 -0.11183359 0.135356
000370 24 b4 12 bd ec 2f 5b be fd 2b 86 3c cc f9 25 3e
       -0.035816327 -0.21405 0.016378397 0.16208571
000380 d6 12 d4 3d e8 17 04 3e 83 dd 30 3c 10 8c ed bd
       0.10355155 0.12899745 0.010795 -0.115989804
000390 07 4b 10 3e 42 99 06 bd 8d 81 82 be e3 f6 05 3e
       0.1409112 -0.032861 -0.25489464 0.13082461
0003a0 69 98 ac 3e 3a e4 a7 3d e8 f5 07 3e 8c 3e 40 be
       0.3371003 0.08197828 0.132774 -0.1877386
0003b0 1a c5 63 be e8 aa 04 3e 07 47 83 be 26 f0 a2 3c
       -0.22243157 0.1295582 -0.25640127 0.019889902
0003c0 df 39 91 3c 34 20 7d 3e 2b ac bf 3d b8 b4 88 bd
       0.01772779 0.24719316 0.0935901 -0.06675094
0003d0 c8 3b 76 3e f3 19 d7 3d 27 53 9f 3d 47 f1 ae 3e
       0.24046242 0.10502996 0.07779532 0.34168455
0003e0 fe 74 9c 3d 3d 21 22 3e 42 99 06 bd c7 a6 1b be
       0.07639502 0.15832992 -0.032861 -0.1520034
0003f0 38 67 22 3e b2 66 24 bd 84 f0 3c be 00 3e ba 3a
       0.15859687 -0.040137 -0.18451124 0.0014209151
