docker/data/ShapeNetCore.v2.PC15k/03001627/test/b360f2264526521f1dee989d1177ef4e.npy (npy, 180128 bytes, 1 tensors)

array f4 [15000, 3]
00000000: f663 07be 69ae a1bd df99 32be 0443 ddbd
00000010: 58b1 54ba 0e0d d2bc 82fa c5bd b60e 7e3e
00000020: dd5a a23e a6ba 153e b1f5 d03d d3e2 a23d
00000030: 6c43 47be 2144 cfbd cf7e 853e 16e5 0fbe
00000040: f57b 06be 4d6a cbbe 5341 26be d008 243c
00000050: b212 41be 9217 183e 1979 38bd e4de 293d
00000060: 2e81 4dbd a8ec 49bc 343b 483d ce73 b3bd
00000070: cfbf 1dbd 3252 39be 1521 513d 98f2 fd3d
00000080: e3a6 8d3e f654 0cbe b7e0 1cbe 44a3 e7bd
00000090: 6125 1cbe a336 12bd 2679 4cbd 351c e2bd
000000a0: d048 c1bc 2629 a8be 50f0 00bd 6699 4dbd
000000b0: f175 433e c057 863a 978c 303e f868 963e
000000c0: 2365 433e 4494 3dbd 7976 b4be dae3 023e
000000d0: 44f2 a8bc 85f3 853e fa54 ecbd 3413 3dbd
000000e0: 40ba c6be 8079 5c3b 0043 d7bc fd54 bebe
000000f0: c19d 7dbd d0f5 223e 9d62 953e 4836 363d
00000100: 9fe9 2abc da4b 26be cf13 3ebe b4e3 493e
00000110: 6baa 833e ebce 993d f6a6 bb3d faaa 833e
00000120: 7c31 223e ee4d 8cbc 8da8 5abe 37ac cfbd
00000130: daf1 02bb f39f 6b3e 209b 4b3c 707b 023b
00000140: 8058 32be bc4c 0b3e 552b 7bbd 65e3 2d3e
00000150: d84e 683d 0027 75bb d702 e1bd 4995 1c3e
00000160: 81aa 8d3d d2dc 213e fcc3 263d 44fb aebd
00000170: 22c3 6b3e 4de3 2a3e 7726 c9bc 71e9 abbe
00000180: 29ad 8a3d caab 033d 0eaf 5f3e b4fb 24be
00000190: e167 4f3c 6dc5 50be 39fa 343e 0622 903d
000001a0: 96c5 4abd 86dd 133e a82c 5cbd bb88 bdbe
000001b0: 02f6 15be 95f6 edbc ecb1 14bd 0031 1ebc
000001c0: fd12 f1bb a9c9 c5bd 205d 2a3e 4244 93bc
000001d0: eea1 8fbe 6402 143e 5ad5 dcbc 8fe3 7c3d
000001e0: ea19 103e 843d 5c3e 3025 923e 43aa 133e
000001f0: 3004 cebc 6f32 873d dacd d4bd 048b 97bd
00000200: 84b3 2f3e 4d5f 3c3e fb62 30be a356 aebe
00000210: 6813 3c3d 7141 86bd 84cc 583e dfcb 24be
00000220: 9f9a 3fbd e823 f43d a4dd cc3d 89cd e5bb
00000230: d4d4 093d 6019 893b 8e8b 4ebb 7935 8abd
00000240: 81b3 883c 810e 753e 9d6c a73e aad6 d73d
00000250: dc7f 45bc 2846 7cbe 693c 603d 1726 72bd
00000260: ca6e 533e 54e7 ce3d 0ea2 063e 44bc 823e
00000270: 031d 2a3e 7146 813b e4cb d23c 2fc0 303e
00000280: 6a19 f5bc ecec 67bd 0704 b83d 1475 5e3d
00000290: 7927 623e 5a3c 233e 0529 adbb 8a70 a93d
000002a0: 2920 2dbe 4f65 0dbc 761a 33bd 8000 693c
000002b0: a7bb 8b3e 5c25 b03e 3c8f 3fbd cde1 acbc
000002c0: 688b 6b3d 341a efbd 66eb febd 71ee bdbe
000002d0: d9d9 39be 1f92 e03d 0c6f 1e3c 10f8 ab3d
000002e0: fee3 99bd c417 5a3e 21ae dfbd fd12 f1bb
000002f0: 2ae7 dabd 7ee8 003e 7beb 3bbd e926 0f3e
00000300: a06e 15be f168 e33d 949f 71bd c6d3 203e
00000310: 537e 7bbd da58 103e 6760 efbd 525b 20be
00000320: 1b0f bdbe d80d db3d 3079 68bd 30a6 333e
00000330: 606b 5a3c e9bb e0bb 16c2 a9bc 093c 033e
00000340: 14a0 3ebc 4cd6 853b 8198 0c3e ae89 95bd
00000350: 7c6c 1d3e 4cb1 a1bd fc1e 09bd 9c78 b43d
00000360: 1286 4fbe f168 e33d a233 47bd a1ec 36be
00000370: 2256 3b3d a25a 3c3e 263b 163e 5ebe 6e3d
00000380: 4255 85bd 7cdb 17be 8227 ce3b dc79 533e
00000390: 905e 45bd 1d1e 29bd 5862 eb3d e0d7 cbbd
000003a0: 561d 713e 1fce 9e3e aac7 c63d a4ab 2b3e
000003b0: e1d4 933e 060c a13d 1b5e 44bd 77c8 b9be
000003c0: 004d 0cbc a22b 08bc 8bba cebd 0d21 bbbd
000003d0: 24d4 4abc 2ead a3be ac5c 1dbd fd12 f1bb
000003e0: 5819 d1bd afdd 343e c84f c03d db3f 013e
000003f0: 8337 23be eb57 13bd 589a 923d b3c5 2bbe
-0.13221726 -0.07894594 -0.1744151 -0.10803798 -0.00081135845 -0.02564099 -0.09666921 0.248103
0.31709948 0.14621982 0.10203112 0.079534195 -0.19459313 -0.101204164 0.2607331 -0.14052233
-0.13133223 -0.3972954 -0.16235857 0.010011867 -0.18854788 0.14852741 -0.045037363 0.04147233
-0.050172023 -0.01232449 0.048884585 -0.08762322 -0.038513 -0.18097761 0.05105694 0.12399787
0.27666387 -0.13704285 -0.15320097 -0.11310437 -0.15248634 -0.035696637 -0.049920224 -0.11040536
-0.02359429 -0.32843894 -0.03147918 -0.05019512 0.1908796 0.001024954 0.17241131 0.2937696
0.1908155 -0.046283975 -0.35246637 0.12782231 -0.020623334 0.26162353 -0.115396455 -0.04616089
-0.38813972 0.0033641756 -0.026277065 -0.37174216 -0.061918024 0.15914083 0.29176798 0.04448536
-0.010431676 -0.16239873 -0.18562244 0.19715768 0.25715956 0.075101696 0.09162705 0.25716382
0.1583919 -0.017127004 -0.2135336 -0.10140269 -0.001998058 0.23010235 0.012427121 0.001991
-0.17416573 0.1360349 -0.06132062 0.16981275 0.056715816 -0.003740728 -0.1098687 0.15291323
0.06917287 0.15806893 0.04071425 -0.08544019 0.23023656 0.16688271 -0.024554474 -0.3357654
0.06771309 0.032146253 0.21844122 -0.16111642 0.012659044 -0.20387812 0.17673577 0.070377395
-0.04950484 0.14439973 -0.053753525 -0.3701838 -0.14644626 -0.029048244 -0.036302492 -0.009655237
-0.007357 -0.09657604 0.16637087 -0.017976884 -0.2805323 0.14454037 -0.026957203 0.061740454
0.14072385 0.21507841 0.28543997 0.14420418 -0.025148481 0.06601416 -0.103908256 -0.07399562
0.17158324 0.1839573 -0.17225258 -0.34050474 0.045916945 -0.06555451 0.21171767 -0.16093396
-0.046778318 0.11920911 0.10003212 -0.007013027 0.033650234 0.004183933 -0.0031516287 -0.0674848
0.016687157 0.23931314 0.32700053 0.10538991 -0.01205441 -0.24636137 0.05474511 -0.059118357
0.20647731 0.10102716 0.13147756 0.2553426 0.1661263 0.003945165 0.025731988 0.17260812
-0.029919345 -0.05662243 0.08985143 0.054310873 0.2208537 0.15940991 -0.005284431 0.08273418
-0.169068 -0.008630111 -0.043726407 0.014221311 0.27291605 0.34403503 -0.04676746 -0.021103764
0.057505995 -0.1167492 -0.124472424 -0.3709598 -0.18149509 0.109653704 0.00967003 0.083969235
-0.07514189 0.21298128 -0.10921884 -0.007357 -0.10688622 0.12588689 -0.04587887 0.13979687
-0.14592981 0.11104 -0.058990076 0.15705785 -0.06139977 0.14096394 -0.11688309 -0.15659836
-0.36925587 0.10696 -0.0567562 0.17543864 0.013331264 -0.006858338 -0.02072243 0.1281587
-0.011634845 0.004084384 0.1373005 -0.07301651 0.15373415 -0.07895145 -0.033476815 0.08812067
-0.20265988 0.11104 -0.048633225 -0.17863704 0.04573644 0.18393949 0.14671001 0.058287017
-0.06510402 -0.1482982 0.006291331 0.20651954 -0.048185885 -0.041288484 0.11493367 -0.09953284
0.23546347 0.31016633 0.09706052 0.16764694 0.2887335 0.078636214 -0.04794131 -0.36285755
-0.00856328 -0.008311184 -0.10094174 -0.09137163 -0.01237968 -0.31968063 -0.038418457 -0.007357
-0.10209912 0.1766269 0.09390217 0.12622015 -0.15939145 -0.035972517 0.07158345 -0.16774635
