docker/data/ShapeNetCore.v2.PC15k/03001627/test/b631b78c2dcc748cba5342d638d0c267.npy (npy, 180128 bytes, 1 tensors)

array f4 [15000, 3]
-0.188626 -0.24780066 -0.33409834 0.008857593 -0.15542102 -0.368416 0.079399034 -0.099961
-0.21399853 0.207489 -0.17878424 0.0389773 -0.188626 -0.33092308 0.05875029 0.11132385
-0.162619 -0.14682017 -0.19989875 -0.23855284 0.041595478 -0.20120582 -0.25187176 -0.33398718
-0.212552 -0.13725217 -0.0966266 0.207489 -0.36485457 -0.35268047 -0.15078148 -0.162619
-0.17693661 0.021923468 -0.099961 -0.06530206 -0.04296215 -0.08586292 0.071588434 -0.03333187
-0.07041332 0.06646119 -0.025131747 -0.055738032 0.02524336 0.090036675 0.27344823 0.061875038
-0.023754105 -0.05056559 0.024030872 0.18424442 -0.099961 -0.051164 -0.02769114 -0.099961
-0.16395691 0.1270546 0.13766097 0.03636349 0.1303427 -0.13864845 0.076925 -0.20910314
-0.162619 0.020160556 0.201264 -0.39455166 0.05221362 -0.212552 -0.11405495 -0.36647958
-0.098285265 -0.099961 -0.12290689 0.207489 -0.11156922 -0.35274416 0.053784534 -0.05605522
0.062361717 0.12008722 -0.039952602 0.058587052 0.061943755 0.12330319 0.06825274 -0.0038713813
-0.07937475 0.06919399 -0.17429124 -0.162619 -0.25172123 0.10023618 -0.099961 0.026436776
-0.10562004 -0.099961 -0.29387334 -0.16838016 -0.162619 -0.3659314 -0.07377954 -0.099961
0.007078111 -0.19072409 -0.29178727 -0.368416 0.059573844 -0.099961 0.06681102 -0.212552
-0.29810742 -0.34246933 -0.076539025 -0.162619 -0.061745718 -0.21006109 0.24185893 0.061725527
-0.17339064 0.2053672 0.09430215 0.06799416 -0.055176795 0.0621558 0.183562 -0.24211067
-0.34165326 -0.18926176 -0.32716197 0.076925 0.183562 -0.35027486 0.0607344 0.207489
-0.13516937 -0.19204888 -0.08643301 0.21742405 0.096292354 0.207489 -0.15808555 -0.06274888
0.12185526 -0.162619 0.055189908 -0.17121966 -0.162619 -0.18519463 -0.212552 -0.4055332
-0.3547247 0.051593468 0.11833619 0.06673805 -0.20708103 -0.13144617 -0.368416 -0.21128343
-0.3038736 -0.368416 0.12522775 -0.006915123 0.016812382 0.183562 -0.40786913 0.061198473
0.042863563 -0.099961 -0.06488018 -0.21173918 -0.09192863 0.073884495 -0.10923294 -0.162619
-0.15386102 0.18860771 0.094110504 0.060261294 0.15901397 0.057246268 0.017140746 -0.188626
-0.2695539 0.074396774 0.07163735 -0.071885 0.066909984 0.13636856 0.22138268 0.059810463
-0.212552 0.053217083 0.048300296 0.031632483 -0.162619 -0.07264677 -0.050625935 -0.14364102
-0.368416 -0.18383823 -0.11643372 0.076925 0.059595406 -0.099961 -0.21989927 0.18163545
0.08325322 0.020892529 -0.17984733 -0.031766176 0.05719228 -0.04753858 0.01829077 0.052405767
-0.212552 -0.22497046 0.06497054 -0.20725597 -0.43566763 0.0550122 0.019379556 -0.099961
0.06220252 -0.212552 0.2619604 0.0887748 0.0069562197 0.22665483 0.06044899 -0.050313458
0.1570409 0.08089016 -0.074243605 0.2059735 0.057368107 0.207489 -0.1392464 -0.07362721
0.15313151 0.2631522 0.06220035 0.07074405 -0.09817494 0.03921383 0.12943162 0.18025562
0.051430017 0.0792626 0.20539118 0.057262834 -0.21214195 -0.17500052 0.076925 0.18435967
00000000: 2d27 41be 75bf 7dbe f00e abbe 701f 113c
00000010: b026 1fbe 06a1 bcbe f69b a23d 5ab8 ccbd
00000020: 6e22 5bbe ff77 543e 3713 37be a9a6 1f3d
00000030: 2d27 41be c06e a9be 25a4 703d c2fd e33d
00000040: 9885 26be 0758 16be 42b2 4cbe 3247 74be
00000050: 0560 2a3d e608 4ebe 56f5 80be 5e00 abbe
00000060: 3ba7 59be d58b 0cbe 2be4 c5bd ff77 543e
00000070: 38ce babe 8992 b4be 7666 1abe 9885 26be
00000080: df2e 35be d898 b33c 5ab8 ccbd 16bd 85bd
00000090: 14f9 2fbd e6d8 afbd f59c 923d 0087 08bd
000000a0: dc34 90bd ce1c 883d 18e1 cdbc 904d 64bd
000000b0: 2acb ce3c 2665 b83d 6801 8c3e ae70 7d3d
000000c0: f897 c2bc dd1d 4fbd 64dc c43c 92aa 3c3e
000000d0: 5ab8 ccbd 5891 51bd 88d8 e2bc 5ab8 ccbd
000000e0: 52e4 27be 9a1a 023e fff6 0c3e e2f1 143d
000000f0: 8f78 053e dcf9 0dbe db8a 9d3d 221f 56be
00000100: 9885 26be c027 a53c 2618 4e3e ad02 cabe
00000110: f3dd 553d 3ba7 59be a495 e9bd 36a3 bbbe
00000120: c949 c9bd 5ab8 ccbd 9cb6 fbbd ff77 543e
00000130: 677e e4bd e29a b4be 2c4d 5c3d 299a 65bd
00000140: 006f 7f3d 4af0 f53d 57a5 23bd faf8 6f3d
00000150: bcb8 7d3d 6286 fc3d 18c8 8b3d 00b7 7dbb
00000160: 3b8f a2bd 94b5 8d3d 6779 32be 9885 26be
00000170: 9be1 80be a048 cd3d 5ab8 ccbd f091 d83c
00000180: 524f d8bd 5ab8 ccbd 9176 96be d96b 2cbe
00000190: 9885 26be 5c5b bbbe ba19 97bd 5ab8 ccbd
000001a0: 80ef e73b 2d4d 43be 2465 95be 06a1 bcbe
000001b0: b403 743d 5ab8 ccbd 37d4 883d 3ba7 59be
000001c0: 89a1 98be 2458 afbe 7ec0 9cbd 9885 26be
000001d0: 14e9 7cbd 411a 57be dea9 773e e8d3 7c3d
000001e0: 518d 31be c74b 523e 7c21 c13d 8640 8b3d
000001f0: 1001 62bd 1597 7e3d adf7 3b3e dceb 77be
00000200: 2ded aebe d6cd 41be c681 a7be db8a 9d3d
00000210: adf7 3b3e 3a57 b3be a2c4 783d ff77 543e
00000220: d769 0abe 76a8 44be ca03 b1bd 69a4 5e3e
00000230: ed34 c53d ff77 543e 2ee1 21be 7c82 80bd
00000240: 408f f93d 9885 26be d00e 623d 3554 2fbe
00000250: 9885 26be a9a3 3dbe 3ba7 59be 0ca2 cfbe
00000260: 7a9e b5be ac53 533d 3f5a f23d f5ad 883d
00000270: 0d0d 54be d399 06be 06a1 bcbe af5a 58be
00000280: 5295 9bbe 06a1 bcbe b43b 003e 4298 e2bb
00000290: 1fba 893c adf7 3b3e 39d4 d0be 40ab 7a3d
000002a0: b491 2f3d 5ab8 ccbd e6df 84bd 28d2 58be
000002b0: 1445 bcbd c150 973d 85b5 dfbd 9885 26be
000002c0: be8d 1dbe 6122 413e 02bd c03d 8cd4 763d
000002d0: 8fd4 223e 107b 6a3d c06a 8c3c 2d27 41be
000002e0: f802 8abe 565d 983d 9ab6 923d 7138 93bd
000002f0: 1a08 893d 33a4 0b3e 24b2 623e d1fb 743d
00000300: 3ba7 59be 28fa 593d 88d6 453d 1091 013d
00000310: 9885 26be d4c7 94bd 245d 4fbd a216 13be
00000320: 06a1 bcbe 1740 3cbe cd74 eebd db8a 9d3d
00000330: 501a 743d 5ab8 ccbd 462d 61be a5fe 393e
00000340: aa80 aa3d cf26 ab3c e629 38be 401d 02bd
00000350: 7442 6a3d d0b7 42bd 86d6 953c 6ea7 563d
00000360: 3ba7 59be a85e 66be 460f 853d e93a 54be
00000370: d40f dfbe 7954 613d e0c1 9e3c 5ab8 ccbd
00000380: 12c8 7e3d 3ba7 59be ac1f 863e 90cf b53d
00000390: 00f1 e33b 3418 683e 5c99 773d 7c15 4ebd
000003a0: 54cf 203e bda9 a53d 080d 98bd b8ea 523e
000003b0: d2fa 6a3d ff77 543e 9c96 0ebe ddc9 96bd
000003c0: 82ce 1c3e e3bb 863e cbc5 7e3d 42e2 903d
000003d0: f10f c9bd ae9e 203d b989 043e ee94 383e
000003e0: 48a8 523d 6e54 a23d 1152 523e 6f8c 6a3d
000003f0: bd3b 59be 5633 33be db8a 9d3d c8c8 3c3e
